CODE/models/model.pth (torch, 7431 bytes, 5 tensors)

layers.0.weight f4 [100, 10]
00000000: 0486 3fbd f456 61bd f6de 69be f934 863e
00000010: 9041 c3bd 7ea1 cbbb d664 5d3c 68ef 27be
00000020: 9876 903d a787 ad3d 12eb aabd 2a68 18bf
00000030: 0cd4 e63e 6025 abbe 257f 8f3b 4a51 8b3e
00000040: faa2 b13e 9225 acbb aa06 023e 6746 163e
00000050: 4c06 89be 46eb 93be ab37 86be bcf4 9dbc
00000060: 001c 9e3e decc 823e 2304 9b3e 80b8 0ebf
00000070: 009a c63b 70db 853e a9b8 86bb 441f 0f3e
00000080: 911b 5bbd 3e3b 023e 99f0 e43d ebe9 2bbe
00000090: 3d72 11be 6569 313a 8752 2c3e 1ed4 21bd
000000a0: cc37 27be 6559 2f3e 748f 55be 9fe7 733e
000000b0: afbf 533e 9acc 923e 5d35 363e 82eb 903d
000000c0: 0063 af3d 5874 10bf dd79 ac3e 7161 88bd
000000d0: 6386 953e 2853 433e c718 ba3e 4616 37be
000000e0: f2fa e93d 65a3 cebd 597c 01bf e8e8 65bd
000000f0: 48ee 69bf 02da b2bd e4d9 a93e ed8e f43d
00000100: e588 4b3e 9064 cfb9 2054 98bd 236f 80be
00000110: db63 4b3e f0f6 14be 7325 2dbe f73e 903e
00000120: a82f dc3d b0d2 533e 5785 0f3e b7e5 6bbc
00000130: 91bd b9be ea8a 3e3d 1d44 7ebf a93d 7e3d
00000140: a88c 1abf baed d53e 4573 713e 7f1c 4abd
00000150: 3c96 32bf 058e b43a 676c e2bd 13af 8d3d
00000160: 2c3a 243c 8626 37be cab7 99bd 48fd 34be
00000170: e960 0ebd ac34 c2bd 942d 673d 5bdb 89bc
00000180: 4b8b ca3c 1963 783d 9994 08be 4a5d 733d
00000190: c852 743d bb69 573e 9932 323d d37e 023e
000001a0: c4a8 e03e 0710 9dbe b1cd 1a3d d5e2 48bf
000001b0: 0eab 1e3e 08c8 5f3e edd6 98be 96e3 ae3d
000001c0: ab56 71bd d88b 24be 9b0c 383f d847 12be
000001d0: 2a8d 623e 0193 043d 2913 0a3e 9a2b 113d
000001e0: 57cf de3e c0a3 483e 9e21 29be 21f6 cf3e
000001f0: 329d 783e 637e 91bd 5d59 cdbe a904 5b3e
00000200: eba0 8e3e 9d02 203e 1009 d0be 3b09 6c3e
00000210: 3d5a 163e 9dc2 a33d 5876 8fbe 4ec5 f9be
00000220: 870f 773d b484 babe aeaf ef3d 7370 113f
00000230: 8785 1d3f afa3 9d3e 799a 39be f73c 83be
00000240: 9c69 1b3e 7111 dbbe e8e2 483d ba17 b9be
00000250: 929d b43d 0e2b 6c3e 757d 21bf fa36 16bd
00000260: cbc9 51bd d32b a0bd 02a5 e3bd 6641 d43d
00000270: 8183 0a3d a5d9 2dbf ddff 54be 677e 6ebf
00000280: ba0a 673e 7451 953d fcee db3e 972a 87be
00000290: babe 71be 1423 903d b228 acbe 93b8 143d
000002a0: 580b 35bf 69cf 0f3e 4341 1abf 2896 453f
000002b0: ee79 7d3e 143e a4bd 2af4 763c 8904 e4bc
000002c0: 1ea8 6dbe 9812 b03c df70 12be 626e 823c
000002d0: d7c8 93bd 9274 4c3f c855 18bd 2b87 34be
000002e0: 1330 ff3c d59f 3c3e 7977 fb3d d6db 75be
000002f0: fad9 163e 821c a93e 87a5 0e3e a59b ac3e
00000300: f305 7a3d 621d 36bd 044b 5cbc 2901 e13e
00000310: 2f10 2a3e 6370 71bf 2ac3 4b3d 3f5e 223d
00000320: 3073 b5be 4e8b 883e 0472 cf3d 87e5 3abd
00000330: bacb 4ebe 6975 7ebd 7d73 d53e 1ebd 45be
00000340: 643e 29bd 7f22 f93c 0c8c 8d3e b5a6 453e
00000350: 4f6e f93c 9b44 79be 5f69 ad3e d42f 86be
00000360: 6a62 7e3d bc6e 263e 6e6e 623c 5846 553e
00000370: 467e 2c3e 2482 133e 57d5 b33d 4c7b 2d3e
00000380: 0430 34be 15cd cabe de88 733e 97b9 923e
00000390: 9ad8 8a3d a00f ce3d dbbe 143f 1cc6 1a3e
000003a0: ab53 80be 4298 2cbe ac80 133e f858 a2be
000003b0: 46ea 55be e7fe 9cbe 29f5 50bf 9c87 36be
000003c0: 66df b8be 9448 173f 07b4 743e 8e33 3abd
000003d0: 2542 89bb 03c8 193f 2dca 823e 9ed9 933d
000003e0: 60c1 523e 02a1 cfbd 3203 81bd 65eb 84be
000003f0: 92d6 bcbc 5ddf 9f3e a20f cd3e 1667 8f3e
-0.046758667 -0.055014566 -0.22838959 0.2621229 -0.095339894 -0.0062143197 0.013512811 -0.1639992
0.0705387 0.08473139 -0.08345617 -0.5953394 0.45083654 -0.33426952 0.0043791705 0.27210456
0.34694654 -0.005253502 0.12697855 0.14675294 -0.26762617 -0.28890437 -0.26214346 -0.019281738
0.30880737 0.25546926 0.30276594 -0.55750275 0.0060608387 0.2614398 -0.0041113687 0.1397677
-0.053493086 0.12717912 0.11178703 -0.16788451 -0.14203735 0.0006767719 0.16828357 -0.03950893
-0.16329879 0.17123945 -0.20855504 0.23818825 0.2067859 0.28671724 0.17793794 0.070761696
0.085638046 -0.56427526 0.33686724 -0.066592105 0.2920409 0.1907469 0.3634703 -0.1787959
0.11424817 -0.10089759 -0.50580364 -0.05613032 -0.91379213 -0.08732988 0.3317405 0.119413234
0.1987644 -0.00039557042 -0.074379206 -0.2508479 0.1986231 -0.14547324 -0.16908817 0.28173038
0.10751277 0.2068584 0.14015709 -0.01439803 -0.3627744 0.046519198 -0.9932268 0.062070522
-0.60370874 0.41782933 0.23579128 -0.049343582 -0.6976049 0.0013775235 -0.11055832 0.069181584
0.010023635 -0.1788579 -0.07505758 -0.17674744 -0.03476039 -0.094827026 0.05643995 -0.01682823
0.024724623 0.060641382 -0.13337936 0.05941514 0.05964926 0.21036427 0.043505285 0.12743692
0.43878758 -0.3067629 0.03779382 -0.7847112 0.1549494 0.2185365 -0.29851475 0.08539502
-0.058920544 -0.16068971 0.71894234 -0.14285219 0.22124162 0.032366756 0.13483872 0.035441972
0.43517563 0.19593716 -0.1651673 0.4061747 0.24278715 -0.071041845 -0.4010724 0.21388496
0.27857146 0.15625997 -0.40631914 0.23050396 0.1468286 0.07996104 -0.28019977 -0.48783344
0.060317542 -0.3642937 0.1170343 0.5681221 0.6153187 0.30788943 -0.18125333 -0.2563245
0.15177006 -0.42786744 0.04904452 -0.36150914 0.08819117 0.23063299 -0.6308206 -0.036673523
-0.051217835 -0.07820859 -0.11115457 0.10364036 0.03381682 -0.67910224 -0.20800729 -0.93161625
0.22562686 0.072909266 0.42955768 -0.2639968 -0.23607913 0.070379406 -0.33624798 0.036308836
-0.70720434 0.14043964 -0.6025583 0.77182245 0.24753544 -0.08019653 0.015072862 -0.027834194
-0.23208663 0.021493241 -0.1430087 0.015921775 -0.072160415 0.7986537 -0.037191182 -0.17629687
0.031150853 0.18420346 0.12278647 -0.24009642 0.14731589 0.33029562 0.13930331 0.33712497
0.06104083 -0.044461615 -0.0134456195 0.43946198 0.16607736 -0.94312114 0.04974667 0.03964066
-0.35439444 0.2666878 0.10129169 -0.04562905 -0.20194903 -0.06212369 0.41689673 -0.19310424
-0.041319266 0.030411957 0.2764591 0.19301875 0.030448107 -0.24342577 0.33869454 -0.26208365
0.062105574 0.1625318 0.013820274 0.20827615 0.16845044 0.14405113 0.08780926 0.16941565
-0.17596442 -0.3960959 0.2378268 0.2865722 0.06779595 0.10061574 0.5810372 0.15114635
-0.25063834 -0.16854957 0.14404553 -0.31708503 -0.2089015 -0.30663225 -0.81624085 -0.17825168
-0.3610794 0.5909512 0.238968 -0.045459323 -0.0041887932 0.6007082 0.25544873 0.072192416
0.20581579 -0.10138132 -0.062994376 -0.25960842 -0.023051534 0.312251 0.4005099 0.28008336

layers.0.bias f4 [100]
00000000: 4b8b 8bbe 62cc 943e 0a70 633e 84fb 183e
00000010: 7ac5 72be d5e0 ee3d 4c74 89be f596 d4be
00000020: 1397 16bf f6d1 493d 2e89 7fbe 6fe7 683e
00000030: 1ac6 6c3e ecd6 433e 8625 e4be 9566 85be
00000040: 5bd6 8cbe 4b65 64bf 57f6 e23d b51c 87be
00000050: 5cc4 5c3d 110b 393d 5467 8b3e 55e1 123e
00000060: 477f 5f3e aa30 3d3d 40a1 9bbf 9dca ce3d
00000070: 2e60 ebbe 7c1a 983d 39dc 943d 4eb5 333d
00000080: c502 653e 508c 4dbf fe8b 88be 6baf 013f
00000090: ae64 2b3d 74ea a23e 5f68 18be b6fb 673e
000000a0: dfb4 64bd a43b 21bf 4b1f 6f3e d9a4 ca3d
000000b0: daac 30be 6f7c 953d 8218 0bbe d04d e13e
000000c0: 3e5a 8bbe ce71 4c3e a914 48bd 83c9 973e
000000d0: 682d d0bd 7aa0 cfbd bb2f 2c3e 9ba0 5fbe
000000e0: 8f4a 823e 24b6 3a3e fad6 90be a62b 613e
000000f0: d644 7d3d 636a 153d 77e6 aa3d ef6b bebd
00000100: 38c9 dfbd 9b2b 01be afa2 94be db3e dabe
00000110: abbc 963d af5d 6abf 447f a3be 675b 3abe
00000120: 0b0f 1abe 51c2 37bc 9693 bbbd bfa8 dc3d
00000130: 1c0b c0be 4e0a 98bd b256 aabe 0d52 8b3e
00000140: 8937 9d3d b937 953e 3ac6 3bbe d355 6e3e
00000150: e2a2 c63e 41b8 b23e 56f1 ee3d 0763 e5be
00000160: 54c3 a53c c945 9a3d fdfc 24bd cc63 98be
00000170: 3e85 08bf 0809 c2be 8e9f b5be 87f0 2c3e
00000180: 7def edbd 5f74 3a3e 6d44 97be e901 b6bb
-0.2725471 0.29062182 0.22210708 0.14939696 -0.23708144 0.11663977 -0.2684654 -0.4152142
-0.5882427 0.0492725 -0.24954674 0.22744535 0.23122445 0.19124955 -0.44559878 -0.26054826
-0.2750729 -0.8921706 0.11082142 -0.2638909 0.0538982 0.04517657 0.2722727 0.1434377
0.21825896 0.046188988 -1.2158585 0.10097239 -0.45971817 0.074269265 0.07268567 0.043874077
0.22364338 -0.80292225 -0.26669306 0.5065829 0.041844063 0.318195 -0.14883564 0.22654614
-0.055836555 -0.6298163 0.23351781 0.098947234 -0.17253438 0.072991244 -0.13583568 0.4400468
-0.27217287 0.19965288 -0.048847828 0.2964593 -0.101649106 -0.1013803 0.16815083 -0.2183861
0.2544751 0.18233544 -0.28289014 0.21989307 0.061833225 0.03647841 0.08344739 -0.092979304
-0.10927051 -0.1261429 -0.29030368 -0.4262608 0.07360204 -0.915492 -0.31933033 -0.1819893
-0.15044801 -0.011215762 -0.09159009 0.10774373 -0.37508476 -0.074238405 -0.33269268 0.27211037
0.07676608 0.29144076 -0.18337336 0.23274927 0.38796145 0.349062 0.11667125 -0.44802114
0.020234741 0.07532842 -0.04028033 -0.2976364 -0.5332831 -0.37897515 -0.35473293 0.16888629
-0.116179444 0.18208455 -0.29544392 -0.005554427

layers.2.weight f4 [2, 100]
00000000: c7c1 1a3c 2eef 383e 82a5 293e 302e 5c3d
00000010: 111f 98ba e0d3 203e eef5 ab3e 53e1 df3e
00000020: 3f4f 203f ebdb 8f3c 8efe ff3c 2ff6 58be
00000030: 808c d2bd b557 d13d 0c02 5fbe 0400 c4be
00000040: 5f50 9dbe df02 903f 667b c6bd 2ad4 49be
00000050: ca11 d93d 5795 66bc 7bca 99bd e895 a7be
00000060: 1716 bf3c f4ad 783e eef5 f33f fef1 abbd
00000070: 68c7 e5be b4ea 1abe 3c54 273e f7d1 803e
00000080: be5c 213d 11ea 103f ec85 16be c8d8 86be
00000090: 3129 4abe b390 693d 8ac1 523e 804a 953e
000000a0: ba37 e43e adf0 ca3f 819d c03d 40a1 1ebc
000000b0: 0d4e a73e 352d 0dbe 4a67 e53e bcd7 24be
000000c0: 10a6 7abe 0020 e3bd 7058 7bbe db65 2e3e
000000d0: a4a1 ab3e 5cf5 b7be b34e ea3b 2946 c03d
000000e0: 48ce 5d3e de28 56be f6c2 023e a1ff 0c3c
000000f0: b40f 153e 15eb 58be ba93 00be ca49 62be
00000100: 2b6e ff3d 1664 2d3e d6d8 a83e 5dff 4b3f
00000110: 5361 713e 276e b33e ded0 84be 14ff 2a3f
00000120: 9ca9 823b e3b6 403c 2b59 0fbe b6c9 2c3e
00000130: ed11 823e 33a5 05be 0104 a0be 95ea e53d
00000140: cf6a f8bd 65b3 b7bd c507 0e3e 06b5 b23d
00000150: abfe fd3d 931b f63b f6ae 8f3d cfe1 b3be
00000160: 582c 733e cfd0 323e bf30 913e 67ed 053f
00000170: 65fd 5c3f 0029 a83e a932 993e 3831 3e3e
00000180: de46 273e 1652 7f3e c2dd 9e3e a59c 82bd
00000190: 2de0 bf3d a0f6 12be 8100 1bbe ea51 a43d
000001a0: 8642 563e 0e5e 0fbe 3b18 e7be ae32 91be
000001b0: b89d a6be 0645 203c 9c50 d33e 55f9 473e
000001c0: b334 a63d a60f 953e b162 a23e 1c1a be3e
000001d0: 0c39 a43e 3c76 91bf aa01 5c3e 2be6 bf3e
000001e0: e53c 86bd b3c0 d03d 302a b33d 5be8 5b3e
000001f0: 3649 7a3e 8e7a 1fbd e569 dcbf 02a8 853e
00000200: 0128 fe3e 3e51 b23e df07 0dbd 85b1 cf3c
00000210: 5a9a 00be 0d16 00bf cb4b 8a3e 08a2 a23e
00000220: 07da 8bbd 0bba ae3d 5640 75be 30b2 58be
00000230: b144 83bd 19b9 c6bf cf0f 663e ed45 ad3e
00000240: 21d3 d2be b8d7 263e f4ea 92bd 7cab 8f3e
00000250: 0e6e 573d 0e61 fc3b baf4 c13e 51a1 643e
00000260: c159 d53d 9e64 5a3e 5f50 a53d fb82 50be
00000270: f5d2 77be b12d 853e 5a3a c33c 279e 923e
00000280: fad9 69bd 9666 043f 69f3 b33e 38d5 8b3e
00000290: 9619 f83c f1b2 70be 1434 26bf a342 69bf
000002a0: 6f44 aebe b510 0abf ccd7 b53e 4202 87be
000002b0: a18a 3c3e cc61 da3d 271f d53e 8a5f 34be
000002c0: 48cd 3dbe 3b01 283e e4f0 c63e e3aa b9bd
000002d0: 7306 893e 9c98 433e 91cb 2fbe 82a7 95bc
000002e0: eccf 78be 346b 473e 2ed5 cabd 8343 883e
000002f0: ab5f 13be 5efd ab3c 797e 9ebe 0ed8 20be
00000300: 1266 fdbd e7f9 98be dd40 70be 2c97 d0bd
00000310: b147 b93b be91 2ebd 975a a6be 6aa3 613e
0.009445614 0.1805999 0.16567042 0.053754985 -0.0011605938 0.15705824 0.33586067 0.43726596
0.6262092 0.01756092 0.03124931 -0.21187662 -0.102807045 0.10221807 -0.21778125 -0.38281262
-0.3072538 1.1250876 -0.09691505 -0.1970984 0.10599096 -0.014073691 -0.07509323 -0.32731557
0.023325963 0.24285108 1.9059427 -0.08395766 -0.44878697 -0.15128595 0.16340727 0.2516019
0.039395086 0.56607157 -0.14699525 -0.26337266 -0.19742276 0.05702276 0.20581642 0.291584
0.44573766 1.5854698 0.094050415 -0.009682 0.32676736 -0.13786776 0.44805366 -0.16097921
-0.2447741 -0.11090088 -0.24545455 0.17031042 0.3352176 -0.35929382 0.007150495 0.09388382
0.21660721 -0.20914027 0.12769684 0.008605869 0.14556772 -0.21183427 -0.12556353 -0.22098461
0.12472185 0.16932711 0.32977933 0.7968653 0.23572282 0.35044977 -0.25940603 0.6679547
0.003987504 0.011762354 -0.13998859 0.16873822 0.254043 -0.130513 -0.31253055 0.112263836
-0.12129747 -0.08969764 0.13870151 0.08725934 0.1240209 0.0075106113 0.07015793 -0.35133216
0.23747385 0.17462467 0.28357503 0.5231537 0.8632415 0.3284378 0.29921463 0.18573463
0.16335627 0.24933657 0.31028563 -0.06377534 0.0936893 -0.14351892 -0.15136911 0.08023436
0.20923814 -0.14000723 -0.45135674 -0.28358978 -0.32542205 0.0097820815 0.41272438 0.19528706
0.0811552 0.291135 0.3171592 0.37129295 0.32074773 -1.1364207 0.2148501 0.37480292
-0.065545835 0.101930045 0.08748281 0.21475355 0.2444199 -0.038935237 -1.7219816 0.26104742
0.49639896 0.34827608 -0.034431335 0.025353203 -0.1255888 -0.50033647 0.2701095 0.31764245
-0.06828695 0.08531579 -0.23950323 -0.21161723 -0.06409586 -1.5525237 0.22466968 0.33842412
-0.41176704 0.16293228 -0.0717372 0.2806052 0.05259519 0.0077019995 0.37882024 0.22327162
0.1041751 0.21327445 0.0807197 -0.20362465 -0.24201567 0.26011422 0.023831535 0.28636286
-0.057092644 0.51719034 0.35146645 0.2731111 0.030285638 -0.2350576 -0.64923215 -0.91117305
-0.34036586 -0.5393174 0.35516202 -0.2636891 0.18412258 0.106631845 0.4162533 -0.1761457
-0.1853534 0.1640672 0.3885566 -0.09065797 0.26762733 0.19101185 -0.17167498 -0.01826835
-0.24298066 0.19474488 -0.09903942 0.26614007 -0.14391963 0.020994838 -0.30955866 -0.15707418
-0.12372984 -0.2987816 -0.23462243 -0.10185084 0.0056542982 -0.04261946 -0.3249099 0.22034994

layers.2.bias f4 [2]
00000000: b025 083e 6fae 0a3e
0.13295627 0.13543104

layers.4.weight f4 [1, 2]
00000000: f0d9 593f 1fea 39bf
0.8509817 -0.72622865
